[2025-08-26 21:13:10][base_learner.py:360][INFO] [RANK0]: DI-engine DRL Policy
AlphaZeroModel(
  (prediction_network): PredictionNetwork(
    (activation): ReLU(inplace=True)
    (resblocks): ModuleList(
      (0): ResBlock(
        (act): ReLU(inplace=True)
        (conv1): Sequential(
          (0): Conv2d(256, 256, kernel_size=(3, 3), stride=(1, 1), padding=(1, 1), bias=False)
          (1): BatchNorm2d(256, eps=1e-05, momentum=0.1, affine=True, track_running_stats=True)
          (2): ReLU(inplace=True)
        )
        (conv2): Sequential(
          (0): Conv2d(256, 256, kernel_size=(3, 3), stride=(1, 1), padding=(1, 1), bias=False)
          (1): BatchNorm2d(256, eps=1e-05, momentum=0.1, affine=True, track_running_stats=True)
        )
      )
    )
    (conv1x1_value): Conv2d(256, 16, kernel_size=(1, 1), stride=(1, 1))
    (conv1x1_policy): Conv2d(256, 16, kernel_size=(1, 1), stride=(1, 1))
    (norm_value): BatchNorm2d(16, eps=1e-05, momentum=0.1, affine=True, track_running_stats=True)
    (norm_policy): BatchNorm2d(16, eps=1e-05, momentum=0.1, affine=True, track_running_stats=True)
    (fc_value_head): Sequential(
      (0): Linear(in_features=3584, out_features=256, bias=True)
      (1): LayerNorm((256,), eps=1e-05, elementwise_affine=True)
      (2): ReLU(inplace=True)
      (3): Linear(in_features=256, out_features=256, bias=True)
      (4): LayerNorm((256,), eps=1e-05, elementwise_affine=True)
      (5): ReLU(inplace=True)
      (6): Linear(in_features=256, out_features=1, bias=True)
    )
    (fc_policy_head): Sequential(
      (0): Linear(in_features=3584, out_features=256, bias=True)
      (1): LayerNorm((256,), eps=1e-05, elementwise_affine=True)
      (2): ReLU(inplace=True)
      (3): Linear(in_features=256, out_features=256, bias=True)
      (4): LayerNorm((256,), eps=1e-05, elementwise_affine=True)
      (5): ReLU(inplace=True)
      (6): Linear(in_features=256, out_features=45, bias=True)
    )
  )
  (representation_network): RepresentationNetwork(
    (conv): Conv2d(1, 256, kernel_size=(3, 3), stride=(1, 1), padding=(1, 1), bias=False)
    (norm): BatchNorm2d(256, eps=1e-05, momentum=0.1, affine=True, track_running_stats=True)
    (resblocks): ModuleList(
      (0): ResBlock(
        (act): ReLU(inplace=True)
        (conv1): Sequential(
          (0): Conv2d(256, 256, kernel_size=(3, 3), stride=(1, 1), padding=(1, 1), bias=False)
          (1): BatchNorm2d(256, eps=1e-05, momentum=0.1, affine=True, track_running_stats=True)
          (2): ReLU(inplace=True)
        )
        (conv2): Sequential(
          (0): Conv2d(256, 256, kernel_size=(3, 3), stride=(1, 1), padding=(1, 1), bias=False)
          (1): BatchNorm2d(256, eps=1e-05, momentum=0.1, affine=True, track_running_stats=True)
        )
      )
    )
    (activation): ReLU(inplace=True)
  )
)
